checkpoint.pth (torch_old, 28451 bytes, 6 tensors)

fc1.weight f4 [64, 37]
000000 5d 02 95 bb 19 5b a9 3d ac b1 87 bd b4 2b 57 bd
       -0.004547401 0.082693286 -0.06625685 -0.052531913
000010 92 59 1f be 75 14 03 be 1b 05 e2 3d a3 6b 70 3e
       -0.15561512 -0.12800772 0.1103613 0.2347856
000020 6f aa c5 3d 03 88 18 3e b5 23 b0 bc cd d5 31 3d
       0.09651648 0.14895634 -0.021501401 0.043416787
000030 19 f1 ef bd 12 f8 c8 bd b0 c0 19 be 75 9c 0d bd
       -0.117159076 -0.09812941 -0.1501491 -0.034573037
000040 14 df 3e 3e 7a 1b 2e 3d 05 cf 1e bc 8d 99 77 3c
       0.18639785 0.042506672 -0.009692912 0.015112293
000050 a5 cb f9 3d 67 d0 c3 3d f5 02 22 3d 1a da 25 3e
       0.12197045 0.09561234 0.0395536 0.1619648
000060 e1 06 06 3e f3 09 19 be d2 63 15 3e e7 30 09 3e
       0.13088562 -0.14945202 0.1458886 0.13397561
000070 12 33 bb bd 87 91 7c bd fa d6 b1 3d 61 da 24 3d
       -0.091406 -0.061662223 0.08683582 0.040247325
000080 62 f8 c8 bd 7a 96 46 3d 11 40 9c be 59 86 88 bd
       -0.09813 0.04848335 -0.3051763 -0.0666625
000090 af fa 12 bd 49 2e ad 3e 2d 10 ab 3d 3f 23 8d 3d
       -0.0358836 0.33824375 0.08352695 0.06891488
0000a0 1e 3a 18 3d 6c e6 1f bd 91 aa 25 3e 1b 3c 6e bd
       0.0371648 -0.039038107 0.16178347 -0.05816279
0000b0 5f aa 0f be 78 9d a1 bd b1 7d 2f be c7 ac ae 3d
       -0.14029835 -0.07891363 -0.17137791 0.085290484
0000c0 22 78 07 3d 29 46 57 3d 7e 63 51 3e 10 81 9f 3d
       0.033073552 0.052557144 0.2044811 0.077882886
0000d0 48 cd 50 3d 7d 93 45 3d 34 44 37 3e 2e 9c 68 3e
       0.05097702 0.04823636 0.17897111 0.22715828
0000e0 07 ce ac bb fa 40 8d bd 59 24 89 bc 6f 34 20 3d
       -0.005273584 -0.06897159 -0.016740965 0.039112505
0000f0 bd e7 27 3d 89 37 dd 3c 27 9e 1f 3b f8 c9 00 3d
       0.040992487 0.02700402 0.002435574 0.031442612
000100 0e 35 24 3e 0b 22 fa 3d 38 9a 6c 3d 03 82 8f 3d
       0.16035864 0.122135244 0.057764262 0.0700722
000110 32 34 27 3e 85 31 75 3e 77 13 94 3c e4 93 7a 3d
       0.16328505 0.23944671 0.018075688 0.061176196
000120 3d e3 b1 bb 16 4d bf 3d 4d 61 27 3d 11 ac 0c 3e
       -0.0054287002 0.09340875 0.040864278 0.13737513
000130 a2 16 fe 3d b0 79 e1 3d 56 85 a5 bd 21 37 15 bd
       0.124066606 0.11009538 -0.080820724 -0.03642953
000140 37 76 32 3d 98 23 07 3d f2 c5 b5 3d 24 cc 66 3d
       0.04356977 0.03299293 0.08875646 0.056347027
000150 e2 81 6f 3e 7a b1 ad be 14 cf 18 be 62 2c 4f be
       0.2338939 -0.33924466 -0.14922744 -0.20231774
000160 69 ee 9f bf 3c ba eb ba 18 63 84 3d 5c a8 b5 3d
       -1.2494632 -0.0017984579 0.06464213 0.088700026
000170 96 6d 17 3e ef e1 c0 3d 1b 01 60 bd 28 79 4b bd
       0.14787897 0.094180934 -0.054688554 -0.04967609
000180 1d c9 78 3b 60 ac 60 3d e8 08 99 3c 52 64 26 bc
       0.003796167 0.05485189 0.018681005 -0.010155754
000190 e8 ef ad 3d 10 91 02 3e fb bd 14 3e b9 8c 04 3d
       0.08493024 0.1275065 0.14525597 0.032360766
0001a0 d0 cb c1 be 91 1a 24 3d 1c 8c a0 3b 71 69 2e 3d
       -0.3785081 0.0400644 0.004899515 0.042581026
0001b0 43 94 cd 3e c1 57 8d bc 2f 40 2b bb ac f2 34 3d
       0.40152177 -0.017253758 -0.0026130786 0.044176742
0001c0 48 c7 a9 3d 9f 94 83 3d 0c 82 89 3d 89 b5 eb bb
       0.08289963 0.064248316 0.067142576 -0.0071932715
0001d0 66 76 83 bc a4 32 2b 3c cd ae c8 bb 37 51 c6 3d
       -0.016047668 0.010449085 -0.0061243535 0.09683459
0001e0 f5 fe 17 3e 38 02 95 bb c5 74 95 bc 9d 1f 38 3c
       0.14843352 -0.0045473836 -0.018244157 0.011238006
0001f0 3f 0e 3e 3d 54 c0 df 3c 90 cd 75 bd 3a f3 b2 bd
       0.046400305 0.027313389 -0.060010493 -0.08737798
000200 4a f7 5a bd 62 bf a7 bc 6e c3 06 3d 50 88 fa 3d
       -0.05345849 -0.020477 0.03290122 0.12233031
000210 48 ce e0 be 75 a0 8d 3d 97 74 e8 3d 5a 03 4e bd
       -0.4390738 0.069153704 0.11350363 -0.050296165
000220 80 47 29 bc 08 54 0e 3d 6e 39 11 3d 4e 66 97 3d
       -0.010331988 0.034748107 0.03545516 0.0739256
000230 4a d5 c2 3d 75 f2 63 3e 3f 12 c6 3d 5a eb 8f be
       0.09513338 0.22260459 0.09671449 -0.28109246
000240 84 ae 84 be 67 56 90 bf e2 1f 33 b9 41 af cc 3a
       -0.25914395 -1.1276368 -0.00017082648 0.0015616195
000250 b5 23 03 be 75 e2 32 be 47 ef 62 be 02 f6 9f bd
       -0.1280659 -0.17469199 -0.2216159 -0.07810594
000260 b6 cf aa bd 74 2b e8 3d 1e 21 00 3d 4b 11 c6 bd
       -0.08340399 0.11336413 0.031281583 -0.09671267
000270 c4 17 55 be 83 4c e1 bd 4b fc 40 3c 7d 1b ac bc
       -0.20809847 -0.110009216 0.011778901 -0.021009201
000280 db 2f f7 bd ef 69 45 be c7 ac f8 bd 74 d6 33 be
       -0.120696746 -0.19278692 -0.1214233 -0.17562276
000290 56 a5 eb bd fe c8 97 bd 6b 1c 75 bc e4 3b 3a 3e
       -0.11506145 -0.07411383 -0.014960389 0.18186909
0002a0 62 22 07 be 44 bb b6 bd f7 68 70 3d 89 ff 1d bd
       -0.1319671 -0.08922437 0.058693852 -0.038573775
0002b0 12 33 f3 3d 8f f0 99 3d 74 a0 28 bc 3d 71 53 bd
       0.11874975 0.07516586 -0.010292161 -0.051621664
0002c0 36 e2 55 be 62 fe 35 bd be 69 33 3d 69 86 21 be
       -0.20887074 -0.04443205 0.043802015 -0.1577393
0002d0 4d c6 9e 3c a0 84 cd 3c 8d 12 83 3e 3f 14 9c bc
       0.019381667 0.025087655 0.2560009 -0.019052623
0002e0 c9 78 b0 3d 76 ff a7 3d 43 0e 86 3d 4a 0f e1 bc
       0.08616788 0.08203022 0.06545689 -0.02747311
0002f0 85 f4 9e 3d 09 12 a3 3d 5f 5f 74 3e 88 f5 8d 3e
       0.07761482 0.07962424 0.23864506 0.27726388
000300 9d 10 11 be 88 0b 59 bd a7 92 5a bf 41 b1 71 3c
       -0.14166494 -0.052989513 -0.85380024 0.014751733
000310 47 87 07 3d de 97 0b bb 08 65 e9 bd 13 2d a5 3d
       0.033087995 -0.0021300237 -0.11396223 0.08065238
000320 15 22 21 3d 6d 94 2f 3e 9f af a6 ba 5f 9e 30 bd
       0.039339144 0.17146464 -0.0012717134 -0.043119784
000330 6f 87 35 be d7 9f 35 3e 58 f7 e8 3d e1 20 cd 3d
       -0.17727445 0.17736755 0.11375302 0.10016037
000340 c7 11 02 3d 61 ef 13 3e 01 ba ce 3d 6d f4 81 bd
       0.031755235 0.14446785 0.10094071 -0.06345449
000350 8a 6e 55 3d 7f d4 b8 3d 04 64 06 bd 25 60 81 3e
       0.05210737 0.090249054 -0.032810226 0.25268665
000360 f5 44 b1 bd c7 24 64 be 95 a0 00 bd 27 f4 1a bf
       -0.08655731 -0.22279654 -0.031403143 -0.60528797
000370 33 48 8d 3d 10 91 ae 3d 12 c9 89 3c 5b b0 ad 3c
       0.068985365 0.08523762 0.01681951 0.021202257
000380 24 37 e4 3b 4e c7 88 3c 65 a5 78 bd 9a 0e 87 bd
       0.006964581 0.016696598 -0.060704608 -0.06594582
000390 a8 f7 21 bb 38 1e be ba 95 c4 14 bc b2 8b 82 3d
       -0.0024714265 -0.0014504855 -0.009080072 0.06374301
0003a0 c0 55 95 3c 8e 4a df 3d a4 a0 d9 3d e3 a0 f3 3d
       0.018229365 0.10902892 0.10626343 0.11895921
0003b0 c0 11 06 3e 1e 4c a4 bc ab 63 5d bb 01 82 17 3d
       0.13092709 -0.020055827 -0.003378133 0.036989216
0003c0 2a f0 96 3d 31 5f a9 3d dc c4 b9 bd 89 01 6b 3d
       0.073700264 0.082701094 -0.09070751 0.05737451
0003d0 9b a5 41 3d 19 fb a3 3d e3 d2 27 3e 46 52 28 bd
       0.047277074 0.080068775 0.1638904 -0.041094087
0003e0 68 5e 6f bd d5 55 79 bd 54 5b 1c bd 4b de c1 3b
       -0.058439642 -0.06087287 -0.038173035 0.005916392
0003f0 8f 28 9b 3e df f9 9b bd 9d 92 4c be 10 68 95 be
       0.3030438 -0.076160185 -0.19977804 -0.29180956

fc1.bias f4 [64]
000000 4a 3d 2a 3e ce 6d 9f 3d 92 a8 c9 bd 5b 79 ca bd
       0.16624942 0.077846155 -0.09846605 -0.09886428
000010 a5 d5 e8 3d a7 a6 77 3d de 61 79 bd c1 e5 ae 3d
       0.113688745 0.060461666 -0.06088435 0.08539916
000020 04 e0 c9 3d cf 3b 18 be f7 db aa 3e 7d c6 1e 3e
       0.09857181 -0.14866565 0.33370945 0.15505405
000030 0e 5f 19 3e eb 59 6a 3e 20 8e 96 bd 07 32 6a bd
       0.14977667 0.22885863 -0.07351327 -0.057176616
000040 69 e0 0b 3e 0e 8a 39 bd f8 4a 35 3e 99 b7 1a be
       0.13659824 -0.045297675 0.1770438 -0.151091
000050 1c 30 97 bd 41 f6 db 3c 01 42 52 3d 69 02 a6 bd
       -0.07382223 0.026850821 0.051332477 -0.081059285
000060 01 8d 54 bd 4a f8 69 3e f6 65 47 3d 01 f5 11 be
       -0.051892284 0.22848621 0.048681222 -0.14253618
000070 18 f8 19 3e cc ea 5f 3e a9 c3 f6 bc 8a 92 5a be
       0.15036047 0.21866912 -0.030122595 -0.21344963
000080 7d 43 86 3e 2b 6d aa 3d 12 fd b1 3d 16 32 ba 3d
       0.26223364 0.083216034 0.086908475 0.090915844
000090 1e b6 08 3e b5 e1 52 bc da c2 bb bc 78 30 d1 bd
       0.13350722 -0.012871196 -0.02292006 -0.10214323
0000a0 19 3d 56 bd 44 a0 10 3d c8 07 78 bd 8c 46 93 3e
       -0.05230436 0.03530909 -0.060554296 0.2876476
0000b0 d4 2f 27 3e 2d ab b9 bd ce bc 83 3d c0 26 1b be
       0.16326839 -0.09065852 0.06432496 -0.151515
0000c0 a8 78 b6 bd 0a 92 ad 3d bf 8a 3b be cb 50 26 3d
       -0.08909732 0.0847512 -0.18314646 0.040604394
0000d0 7d 0e f1 bc 02 a7 59 bb b5 ec e8 bd 6e 69 08 3d
       -0.029425854 -0.0033211117 -0.11373273 0.03330367
0000e0 b7 3b 12 3e 8a 93 d6 3c 6c ff 78 bd f2 e8 e8 ba
       0.14280592 0.026193399 -0.060790464 -0.0017769618
0000f0 16 52 1f 3e e6 17 c0 3d 52 11 12 3e b5 97 8e bb
       0.15558657 0.09379558 0.1426442 -0.004351581

fc2.weight f4 [64, 64]
000000 35 dc 4b 3e 76 3b 4b 3d 33 42 b3 3e fa e8 f0 3c
       0.19908221 0.049617253 0.35011443 0.029407967
000010 e1 b0 59 3e 0f 67 8b 3d 94 aa b7 be a6 7b 01 be
       0.2125888 0.06806766 -0.35872328 -0.12644824
000020 a2 18 05 3d 10 d2 99 bb 54 d9 32 bd e6 be 42 be
       0.032494195 -0.004694231 -0.04366429 -0.19018134
000030 ca 14 95 bd 6c 56 19 3d 0f 7c 97 3d 9f 86 5f 3e
       -0.07279356 0.037435934 0.07396709 0.21828698
000040 b8 ae 88 be 08 cd 5f be 64 0f e9 3d 76 f7 b1 3c
       -0.266958 -0.21855557 0.11379889 0.021724444
000050 77 67 c5 bc 90 7a 19 be 9a d7 35 3e c2 40 c5 bc
       -0.024097187 -0.1498816 0.17758027 -0.02407873
000060 2d 10 30 be 44 3f fc bc 50 33 18 3e da 04 28 3d
       -0.1719367 -0.030791886 0.14863324 0.04102025
000070 38 ff 96 bc 40 6e 68 bd 1d 63 72 3e 5d 3c 99 be
       -0.018432245 -0.056745768 0.23670621 -0.29928866
000080 23 18 a8 3d 14 81 01 be 40 7a 93 3d 21 e0 52 bd
       0.08207729 -0.12646896 0.07201052 -0.051483277
000090 11 25 a7 bd ea ed 05 be ad fa 16 be 86 f0 87 be
       -0.08161367 -0.13079038 -0.14744063 -0.26550692
0000a0 8d 0e 40 be 2f 98 aa 3d 44 55 5f 3e ec 42 53 3c
       -0.1875555 0.08329808 0.2180987 0.012894373
0000b0 c9 c6 d0 3d 13 32 9a be 55 b9 bc be 71 6e 5f 3e
       0.10194165 -0.3011633 -0.36860147 0.21819474
0000c0 ca cf 49 be 80 23 20 bc 97 4b c3 bd f2 d2 35 be
       -0.19708171 -0.009774089 -0.09535902 -0.1775625
0000d0 13 6e a6 3d 78 78 0b bd 99 86 72 bc 8a 1c aa 3d
       0.08126464 -0.034050435 -0.014802598 0.08306225
0000e0 4c 5b e2 3c a0 4c 70 be 94 da db bd d0 52 0f 3e
       0.027631424 -0.2346673 -0.1073505 0.13996434
0000f0 d2 dd b2 3c c0 79 30 3e 80 d2 27 be e0 e6 5a be
       0.021834288 0.17233944 -0.16388893 -0.21377134
000100 d5 2f 2b 3d 58 d6 ba 3d 7f 79 75 be 5a ae 1c 3e
       0.041793663 0.09122914 -0.23972128 0.15300885
000110 1d 33 39 3d 73 f3 c6 3d d1 0c 84 bd 54 6f ed 3d
       0.04521476 0.09714403 -0.06447757 0.115935
000120 f7 a3 f9 bc 6d f9 48 be 95 b0 49 bc 4f 7b 97 3e
       -0.030473692 -0.19626398 -0.012310167 0.29586264
000130 c8 14 09 bd 97 45 f3 3d 25 38 b5 be c5 75 d9 ba
       -0.033467084 0.118785076 -0.35394397 -0.0016590884
000140 fd cd b5 3d 8a 8d 72 3b 31 e9 89 bd dc ec 0c 3c
       0.0887718 0.0037010633 -0.06733931 0.008601394
000150 8c 76 6b 3d 91 fb 0c 3d f2 0b 00 3e 44 f7 dc 3b
       0.057486102 0.0344196 0.12504557 0.0067433435
000160 50 f7 6b bd 17 90 32 3b ec 39 62 be 02 10 5a be
       -0.057608902 0.0027246529 -0.22092408 -0.21295169
000170 f7 e6 73 bd 7d 80 18 be 76 bf e4 3e 86 ea 24 bd
       -0.059546437 -0.14892764 0.44677323 -0.04026272
000180 c7 c8 9a bd 41 62 f4 3c a1 e3 aa 3d 34 58 15 be
       -0.075578265 0.029832007 0.08344198 -0.14584428
000190 83 dd 84 3d 9a 39 c2 bc b4 ea d8 3d 5d ed 29 be
       0.064875625 -0.023709107 0.10591641 -0.16594453
0001a0 a5 ce 9b 3d 3f 4e a6 be 06 79 72 bd f5 6d ec bc
       0.07607774 -0.32481572 -0.05919745 -0.028861025
0001b0 a2 11 9e bd a8 a6 d5 bd 46 42 82 bc e3 f3 3e bd
       -0.07718207 -0.10432178 -0.015900742 -0.046619307
0001c0 1c 4a ed bd 61 a3 56 be d5 29 a4 bc d3 5e e4 3d
       -0.11586401 -0.20960762 -0.020039478 0.11150899
0001d0 79 06 70 bd 0b 81 da be 0a 1c 0d bc 08 96 b8 3d
       -0.058599923 -0.42676577 -0.008612642 0.09012991
0001e0 37 bb bc bd 2d 0b 90 3d c8 41 64 3e fb 2d bc 3d
       -0.09215396 0.070333816 0.22290719 0.091884576
0001f0 b0 e7 e4 bd 3e 34 95 3d 25 2c eb bd 8e 35 50 bc
       -0.111770034 0.07285355 -0.11483029 -0.012708081
000200 40 14 fa bc 72 6a f1 bd 73 a2 4a 3d 09 3b c8 3d
       -0.030527234 -0.11787881 0.04947133 0.09776885
000210 8d 29 40 bc e1 d8 db 3d a8 c6 5b 3d 23 fe d2 3c
       -0.0117286565 0.10734726 0.05365625 0.025755947
000220 9c 9c a0 3d 8b 11 24 bd c3 86 5b 3d a2 e8 01 3e
       0.07842371 -0.040055793 0.053595316 0.12686399
000230 f6 37 03 3e b8 a2 47 3e c0 54 c0 3d 25 9e 90 3d
       0.12814316 0.19495666 0.09391165 0.07061414
000240 90 b4 a2 bd bc 88 1c 3d bd 91 13 3e 0e fe a9 bd
       -0.07944596 0.038216338 0.14411063 -0.0830041
000250 6b 6d eb bd 93 cb d8 3d 24 c9 19 3c 9a 23 33 3d
       -0.11495479 0.10585704 0.009386335 0.043735124
000260 88 ea 23 bd d5 a7 34 3e d7 f5 43 3d e2 bb 61 3c
       -0.04001859 0.17642148 0.047841873 0.013777705
000270 44 7c c5 bc c8 35 85 3e 96 a7 61 be c7 16 46 bb
       -0.024107106 0.26017594 -0.22036585 -0.0030225979
000280 3d 8b 29 be 99 6e 71 3b 9c f9 26 bd 7a 8a 16 3e
       -0.16557021 0.0036839603 -0.04076539 0.14701262
000290 f8 76 3f 3e b2 f1 01 3e 3d 65 81 3e e6 e7 e3 bc
       0.18697727 0.12689856 0.2527255 -0.027820539
0002a0 23 0a 59 3e c5 48 b3 be 93 8f fe 3d ab a6 6b bd
       0.21195273 -0.35016456 0.12429728 -0.057531994
0002b0 1e 2b 32 3d c1 08 8e 3d b1 fa 67 3d 7a cf bd bc
       0.04349815 0.069352634 0.056635562 -0.023170222
0002c0 b1 83 bf bc 9f 27 71 bd d2 93 8f bd 1e 20 e2 3c
       -0.023378225 -0.058875676 -0.07010616 0.027603205
0002d0 b7 7d 29 be 45 fe 67 3e ab 54 00 be 85 6a b3 bd
       -0.16551863 0.2265559 -0.12532298 -0.08760551
0002e0 03 b7 ca 3c 79 82 1b be 5f a7 36 3e a2 57 33 3e
       0.02474547 -0.1518649 0.17837285 0.17513898
0002f0 97 59 3a bc 3b c3 0f 3e f9 95 bd bc 15 54 c5 bc
       -0.011373899 0.14039318 -0.023142802 -0.024087945
000300 3b 22 91 bc 58 4e c4 bd 0e 4e dd 3d 77 80 dc 3e
       -0.017716518 -0.095852554 0.108059034 0.4306676
000310 ec 44 09 bc 48 45 4a 3d cf d6 aa 3d f1 bb 0f bd
       -0.008378249 0.049382478 0.08341753 -0.035091344
000320 52 e7 c4 bd cd bd 85 3d 58 c8 65 bd ce be 81 3e
       -0.09614433 0.06530342 -0.056099266 0.25340885
000330 82 f5 b9 3d 4a ec d9 3d 18 80 da 3d 95 c4 60 be
       0.0908003 0.10640772 0.10668963 -0.2194999
000340 66 9c 2a 3c 0e f8 0d 3d 49 9a e5 bd 87 64 3b bd
       0.010413265 0.03466039 -0.11211068 -0.045750167
000350 2d dc 53 3d f2 e1 b5 3d 1c 73 d4 3d 60 f5 ac bc
       0.051723648 0.08880986 0.10373518 -0.021113098
000360 f2 96 0b 3e df e2 6d 3c ac d8 a1 bd ff e5 fc 3b
       0.136318 0.014519422 -0.07902655 0.0077178474
000370 b0 a9 b0 3d 63 c8 60 bd c8 59 74 be 1a a5 10 be
       0.08626115 -0.054878604 -0.23862374 -0.14125481
000380 9b 04 22 bc ca 56 6b 3d ab e5 56 bd 27 3c 23 3e
       -0.009888793 0.057455815 -0.052465122 0.15940915
000390 36 45 08 bd 0c a1 88 3e 0f 94 a4 3e 51 61 91 3d
       -0.03326913 0.2668537 0.3214421 0.0709864
0003a0 9b 84 56 3d ae 28 83 be fd 3b 02 be 15 46 23 bc
       0.052372556 -0.25616974 -0.12718196 -0.009965439
0003b0 47 aa 0a bd 71 7f 35 3e 1d d6 cd 3c 41 90 f2 3c
       -0.033853795 0.17724396 0.025126511 0.029609801
0003c0 18 a2 5b bd 3b 66 ba 3d 72 c5 b5 bd 47 10 ff 3d
       -0.05362138 0.0910153 -0.0887555 0.124542765
0003d0 37 e1 cb 3c 59 2d 7a 3e 39 33 8a bc 8a 32 c8 3d
       0.024887664 0.24431361 -0.016870128 0.097752646
0003e0 2e b9 04 be f4 ab 4f be 1c 90 55 bd 51 47 98 3d
       -0.12961265 -0.20280439 -0.052139387 0.074354775
0003f0 d7 fc 00 be 50 b0 3b 3d 8e af cb bd 7b 89 b0 bb
       -0.12596451 0.04582244 -0.09945594 -0.0053874827

fc2.bias f4 [64]
000000 8f 3f c7 bc ea 5e c6 3b 17 dd 2f 3e 51 e6 87 3c
       -0.0243223 0.006053795 0.17174183 0.016589316
000010 a5 7e 0a 3e 9c ec e3 bd ce 00 0c bd 28 03 a4 3d
       0.13524874 -0.11129114 -0.034180455 0.080084145
000020 e7 0b 4d 3e 2d 83 99 3e 4c 29 8d bc 5d cb 61 3e
       0.20024072 0.29982892 -0.017231606 0.22050233
000030 cb 17 50 3e 8b 72 c7 bc 48 59 77 bd f9 74 93 3c
       0.20321576 -0.02434661 -0.06038788 0.018000113
000040 a5 5e 92 3d c4 40 87 bc 21 a1 9e bd 3f 0e 86 3e
       0.07146958 -0.016510375 -0.07745577 0.26182744
000050 7e 6d 81 3e 57 7a b5 3e 72 5f 0f be 00 d0 56 3b
       0.25278848 0.354449 -0.14001253 0.0032777786
000060 48 38 1a 3c 12 fc 40 bd b6 1c 7e 3d 5f ba fa bc
       0.009412833 -0.047115393 0.0620391 -0.030606447
000070 3d 6b 00 bd 1e 38 ca 3d 15 a4 42 3d e9 2c b6 3d
       -0.03135227 0.09873985 0.047519762 0.08895285
000080 ad 70 cd bd 73 43 0e 3e af 13 f4 3d 28 90 44 bd
       -0.10031257 0.13892917 0.11917817 -0.04798904
000090 d8 fd b1 bd 0c dd dc bd d0 07 76 3e bf 5b 17 3d
       -0.08690995 -0.10784349 0.24026418 0.03695273
0000a0 da 51 d3 bd f1 c6 b9 3e dd 70 54 3e 3d d1 3e bd
       -0.10318346 0.36284593 0.20746179 -0.046586264
0000b0 28 b8 28 3d 96 c1 b0 bd 6c 2f 2d 3e c7 e9 cd bd
       0.04119125 -0.086306736 0.16912621 -0.10054355
0000c0 d8 3a da 3d 3e ef cf bd e7 00 8f bd 8c e6 8d 3e
       0.10655755 -0.10153054 -0.06982594 0.27714956
0000d0 79 9d 6e bd c5 42 34 bd 9a 05 ba 3d ca 79 a2 bd
       -0.058255646 -0.04400899 0.090831 -0.07933386
0000e0 7a 77 4f be 4d a0 18 be 52 ac b7 3d c4 f3 1f bd
       -0.2026042 -0.149049 0.08968414 -0.039050832
0000f0 8b f9 4f 3d 0d 80 1d 3e be ea 8b 3d 21 fc e8 bd
       0.050775092 0.15380879 0.06831883 -0.11376215

fc3.weight f4 [4, 64]
000000 b6 a6 0b be 5b 21 e1 3d 89 24 1f 3e ba 7d 4b be
       -0.13637814 0.1099269 0.15541281 -0.1987218
000010 72 10 a2 3e 4b c4 d8 3e 7c fa c1 3d 14 02 1b bd
       0.31653172 0.4233726 0.09471604 -0.03784378
000020 1c 9d 2c 3e a4 eb b7 3d ab 27 0c be 7d c1 6e 3e
       0.16856807 0.08980492 -0.13687007 0.23315997
000030 40 72 8d 3d d9 e2 a1 bd 30 50 1c bd 6c 4d c8 bd
       0.06906557 -0.07904596 -0.03816241 -0.09780392
000040 87 da 6d 3e 2f 66 7a 3e 01 a1 99 bd 5d 69 36 3e
       0.23227893 0.24453042 -0.07501412 0.1781363
000050 4d 60 e3 3d 08 9c fe 3d 17 e9 22 3b ce e0 e6 3d
       0.11102352 0.12432104 0.002485817 0.11273347
000060 dc 92 63 3d be 3c aa be a9 61 58 bd fa 18 a9 3c
       0.055559978 -0.33249468 -0.05282751 0.020641793
000070 c5 c7 0e 3f a9 34 92 3e 90 26 ac bd ea f9 1d 3e
       0.55773574 0.28555802 -0.08405793 0.15427366
000080 21 b1 64 be f3 99 1c 3e 5f 9a 04 3e 6b 6d ac bc
       -0.22333194 0.15293102 0.12949513 -0.021048268
000090 38 fd 95 3e 27 e5 d5 be c9 ae 4c 3e b1 f5 b8 3e
       0.29294753 -0.41776392 0.1998855 0.36124948
0000a0 0a 0d 56 3e 9d cc f2 3d 5c 46 1a 3e 72 19 ff bc
       0.20903412 0.11855433 0.15065902 -0.031140063
0000b0 c7 b7 32 3f 4a 36 dd bc 92 7c 3f 3e d2 4c 84 3d
       0.6981167 -0.027003426 0.18699864 0.06459965
0000c0 b0 6f 43 3d 83 9c e0 3e de 3b 99 3d 11 44 28 3e
       0.047713935 0.4386941 0.07482122 0.16432215
0000d0 4c 65 df 3e 7b a7 a9 be 1b 7c 26 3d b1 4f eb 3d
       0.4363197 -0.3313559 0.0406457 0.11489809
0000e0 af 7a b6 bd d1 34 a8 be 60 a9 60 3e 1b 17 db 3d
       -0.08910119 -0.32852796 0.21939611 0.106977664
0000f0 52 20 f5 be c8 db 12 3e 82 e3 fd bd 18 e9 13 3f
       -0.4787622 0.14341652 -0.12396909 0.5777755
000100 3f 81 49 3e dd f0 75 3e 5b e8 0f 3e e7 60 91 be
       0.1967821 0.24017663 0.1405348 -0.28394243
000110 4c d9 e8 3e 9d ab 4a 3f d8 c0 7a bc 34 1d 0f 3c
       0.45478284 0.7916811 -0.015304767 0.00873499
000120 9a c4 50 3c 49 56 d2 3d 12 55 29 be b4 08 19 3e
       0.012742186 0.10270364 -0.16536358 0.14944726
000130 c8 da 02 39 e7 a5 b7 bc 60 de a5 bc bf 6d 7d 3c
       0.00012479268 -0.022417976 -0.020247638 0.01546806
000140 12 ac 81 3e 29 f3 1d 3e f1 9e 68 be 9f 58 f7 3d
       0.25326592 0.1542479 -0.22716881 0.1207745
000150 9b b8 21 3e 62 b9 49 3e 61 1f a8 bd 4e 61 01 3e
       0.15793078 0.19699624 -0.0820911 0.12634775
000160 bc ab 45 3e d8 08 da bc ce 7e ae 3d e1 1a ff bd
       0.19303793 -0.026615545 0.0852028 -0.124562986
000170 71 72 03 3f 9e f6 9f 3e 53 3b 6a bc 4b 21 29 3e
       0.513465 0.3124284 -0.014296371 0.16516607
000180 d7 d8 29 be 8c 42 e9 b8 f9 f9 71 3e e7 92 8c 3d
       -0.16586624 -0.00011122701 0.23630513 0.06863957
000190 e9 5c 51 3e f4 31 7f be ed 85 71 3e 28 53 87 3e
       0.20445599 -0.249214 0.23586245 0.2643063
0001a0 62 34 83 3e 85 a5 32 3e 8c 93 85 3d 49 88 27 bd
       0.25625902 0.17445953 0.06522283 -0.040901456
0001b0 91 d6 41 3f 69 44 52 bd 71 95 40 3e cd d1 6b bd
       0.7571803 -0.051334772 0.18807007 -0.05757313
0001c0 28 c2 88 3d b4 d8 c1 3e bf ec 18 3e 79 03 08 3d
       0.06677657 0.37860644 0.14934061 0.033206437
0001d0 96 91 bf 3e f7 62 30 be e5 f6 e5 3d 04 a9 79 3e
       0.3741576 -0.17225252 0.11228732 0.2438088
0001e0 ff 6e 77 bd 8c 80 3d bd e8 ae 90 3e b5 18 da bc
       -0.06040859 -0.04626517 0.28258443 -0.02662311
0001f0 76 14 76 be d5 b3 6d 3d be c2 2c be 53 99 10 3f
       -0.24031243 0.05803283 -0.16871163 0.56483954
000200 1d af b0 3e 08 d9 24 3e 09 e6 78 3e 03 cf 21 be
       0.345086 0.16098416 0.24306501 -0.15801625
000210 77 74 bd 3e 7d 7f e6 3d 74 fa 19 3e 0a 0d 9a 3d
       0.37002918 0.11254785 0.15036947 0.07522018
000220 82 5f ac 3d 83 7f 08 3e ca 1f 56 be 4a 9a a5 3e
       0.08416654 0.13329892 -0.20910564 0.32344276
000230 9f e6 54 3e 70 ae 1f be 66 5c 98 bd e8 a0 31 3e
       0.207911 -0.15593886 -0.074394986 0.17346537
000240 0c 28 e9 3d c2 66 2f 3e 05 9b e3 be 85 10 87 3d
       0.113845915 0.17129043 -0.44454208 0.06594948
000250 71 63 85 3d 36 55 43 3e 8c a2 66 be cb 28 a7 3c
       0.065131076 0.19075474 -0.22522944 0.020405194
000260 4b b0 9e 3e d3 98 fb be af e7 b9 3d c7 96 54 be
       0.30993876 -0.49140033 0.09077393 -0.20760642
000270 1a 2c 3e 3f 30 6c ee 3e 6a ab b8 3d 73 d1 83 3c
       0.74286044 0.46566916 0.0901707 0.016091084
000280 b2 a6 7e be 30 fc 8c 3a 40 1b 3e 3e 5e bf ab 3e
       -0.24868277 0.001075631 0.18565083 0.3354444
000290 9f a0 00 3e 54 52 8f be c2 4e 37 3e 89 f6 cb 3c
       0.12561272 -0.279925 0.17901137 0.02489783
0002a0 24 f3 dd 3d 42 20 21 3e 2b b5 3c 3e ec 37 53 3d
       0.10837391 0.15734962 0.18428485 0.051567003
0002b0 5c 30 c7 3e 0c 6f e0 bd 0e c2 2e 3e 59 15 7a 3e
       0.38904083 -0.109586805 0.17066213 0.24422206
0002c0 02 2a 79 3e a3 32 b1 3d 1c 70 4c 3e 97 0b 8b 3e
       0.24332431 0.08652236 0.19964641 0.2715728
0002d0 d7 fd 4c bd 8b 60 5e bb 43 93 14 3e 03 47 27 3e
       -0.050046768 -0.0033932056 0.14509301 0.16335683
0002e0 9d 80 98 bd 2d 1e 39 be 0e 21 d2 3e 9c 6d 03 be
       -0.07446406 -0.18077917 0.41040844 -0.12834781
0002f0 8f 16 8a be d9 73 3c 3e 06 d9 15 3b 75 74 f0 bd
       -0.26970336 0.18403567 0.0022864952 -0.117409624
000300 8f f2 af 3e ad a5 98 3e e7 10 d7 3d 43 f6 88 be
       0.34364745 0.298139 0.10501271 -0.26750383
000310 4a a0 53 3d aa 5c 81 3f d6 f8 e5 bd 44 9a b1 3d
       0.051666535 1.0106404 -0.11229102 0.08672002
000320 11 02 f7 3d e9 b5 40 3e 9f 90 a3 3d 05 85 af 3e
       0.12060941 0.18819393 0.07986569 0.34281173
000330 50 29 3f 3e 35 7f 2e 3d 00 be 72 3d 2b 1b 2a be
       0.18668103 0.042601783 0.05926323 -0.16611926
000340 81 bb 91 3e 11 6e db 3e 92 f1 a9 3b 13 f4 2d 3e
       0.28463367 0.42857412 0.005186268 0.16987638
000350 94 b4 02 3d 14 17 4c 3e d4 e4 dd bd d1 f7 86 3e
       0.031910494 0.19930679 -0.10834661 0.26360944
000360 a6 09 80 3e a0 a4 31 be e3 12 61 bc 82 08 1b 3e
       0.2500736 -0.17347956 -0.013737413 0.15139964
000370 92 6b 9f 3e e4 dc be 3d bb 23 c5 bd 07 cd 05 3e
       0.31136757 0.09319475 -0.09625956 0.13066493
000380 dc 64 d4 be eb 84 c6 3d 67 5c 81 3c 91 3d 2a 3e
       -0.414832 0.09693321 0.015791131 0.16625048
000390 66 73 e3 3b a9 87 97 bd 20 e5 84 3e 1d b4 53 3e
       0.006941247 -0.07398922 0.25956059 0.20674177
0003a0 fe bb b7 bd 59 cf 34 3e d7 35 47 3e 6f 46 98 be
       -0.089714035 0.17657222 0.19454132 -0.29741237
0003b0 05 d2 8c 3f 2e ef 08 be cb 73 0f 3e ea 7b 85 bd
       1.1001593 -0.1337249 0.14009015 -0.06517775
0003c0 b8 02 7d 3d b0 ac ba 3d 56 66 78 3e f3 fb f1 3d
       0.06177017 0.09114969 0.24257788 0.118156336
0003d0 ec 8f 23 bd 8d bd 3d bd 96 ac 02 3e 53 40 fe 3d
       -0.039932176 -0.046323348 0.12761149 0.124146126
0003e0 15 3f f9 bd 28 d2 db be 8b bc 06 3e ec 0f 49 be
       -0.12170235 -0.42933774 0.13157861 -0.1963498
0003f0 47 0a 47 be ac 5c 99 3d 89 75 84 bc 6d 51 91 3e
       -0.19437514 0.07488379 -0.016169326 0.28382435

fc3.bias f4 [4]
000000 92 b3 57 3e 27 64 57 3e 87 f6 54 3d b2 f4 3e 3d
       0.21064594 0.21034299 0.05199292 0.04662008
